2024-11-25 05:30:41,449 args = Namespace(batch_size=512, epochs=256, learning_rate=0.001, momentum=0.9, weight_decay=0, save='./models', data='./data', label_smooth=0.1, workers=4)
2024-11-25 05:30:41,499 BiRealNet(
  (conv1): Conv2d(3, 64, kernel_size=(3, 3), stride=(1, 1), padding=(1, 1), bias=False)
  (bn1): BatchNorm2d(64, eps=1e-05, momentum=0.1, affine=True, track_running_stats=True)
  (layer1): Sequential(
    (0): BasicBlock(
      (binary_activation): BinaryActivation()
      (binary_conv): HardBinaryConv(
        (majority_voter): Majority_Voter()
      )
      (bn1): BatchNorm2d(64, eps=1e-05, momentum=0.1, affine=True, track_running_stats=True)
    )
    (1): BasicBlock(
      (binary_activation): BinaryActivation()
      (binary_conv): HardBinaryConv(
        (majority_voter): Majority_Voter()
      )
      (bn1): BatchNorm2d(64, eps=1e-05, momentum=0.1, affine=True, track_running_stats=True)
    )
    (2): BasicBlock(
      (binary_activation): BinaryActivation()
      (binary_conv): HardBinaryConv(
        (majority_voter): Majority_Voter()
      )
      (bn1): BatchNorm2d(64, eps=1e-05, momentum=0.1, affine=True, track_running_stats=True)
    )
    (3): BasicBlock(
      (binary_activation): BinaryActivation()
      (binary_conv): HardBinaryConv(
        (majority_voter): Majority_Voter()
      )
      (bn1): BatchNorm2d(64, eps=1e-05, momentum=0.1, affine=True, track_running_stats=True)
    )
  )
  (layer2): Sequential(
    (0): BasicBlock(
      (binary_activation): BinaryActivation()
      (binary_conv): HardBinaryConv(
        (majority_voter): Majority_Voter()
      )
      (bn1): BatchNorm2d(128, eps=1e-05, momentum=0.1, affine=True, track_running_stats=True)
      (downsample): Sequential(
        (0): AvgPool2d(kernel_size=2, stride=2, padding=0)
        (1): Conv2d(64, 128, kernel_size=(1, 1), stride=(1, 1), bias=False)
        (2): BatchNorm2d(128, eps=1e-05, momentum=0.1, affine=True, track_running_stats=True)
      )
    )
    (1): BasicBlock(
      (binary_activation): BinaryActivation()
      (binary_conv): HardBinaryConv(
        (majority_voter): Majority_Voter()
      )
      (bn1): BatchNorm2d(128, eps=1e-05, momentum=0.1, affine=True, track_running_stats=True)
    )
    (2): BasicBlock(
      (binary_activation): BinaryActivation()
      (binary_conv): HardBinaryConv(
        (majority_voter): Majority_Voter()
      )
      (bn1): BatchNorm2d(128, eps=1e-05, momentum=0.1, affine=True, track_running_stats=True)
    )
    (3): BasicBlock(
      (binary_activation): BinaryActivation()
      (binary_conv): HardBinaryConv(
        (majority_voter): Majority_Voter()
      )
      (bn1): BatchNorm2d(128, eps=1e-05, momentum=0.1, affine=True, track_running_stats=True)
    )
  )
  (layer3): Sequential(
    (0): BasicBlock(
      (binary_activation): BinaryActivation()
      (binary_conv): HardBinaryConv(
        (majority_voter): Majority_Voter()
      )
      (bn1): BatchNorm2d(256, eps=1e-05, momentum=0.1, affine=True, track_running_stats=True)
      (downsample): Sequential(
        (0): AvgPool2d(kernel_size=2, stride=2, padding=0)
        (1): Conv2d(128, 256, kernel_size=(1, 1), stride=(1, 1), bias=False)
        (2): BatchNorm2d(256, eps=1e-05, momentum=0.1, affine=True, track_running_stats=True)
      )
    )
    (1): BasicBlock(
      (binary_activation): BinaryActivation()
      (binary_conv): HardBinaryConv(
        (majority_voter): Majority_Voter()
      )
      (bn1): BatchNorm2d(256, eps=1e-05, momentum=0.1, affine=True, track_running_stats=True)
    )
    (2): BasicBlock(
      (binary_activation): BinaryActivation()
      (binary_conv): HardBinaryConv(
        (majority_voter): Majority_Voter()
      )
      (bn1): BatchNorm2d(256, eps=1e-05, momentum=0.1, affine=True, track_running_stats=True)
    )
    (3): BasicBlock(
      (binary_activation): BinaryActivation()
      (binary_conv): HardBinaryConv(
        (majority_voter): Majority_Voter()
      )
      (bn1): BatchNorm2d(256, eps=1e-05, momentum=0.1, affine=True, track_running_stats=True)
    )
  )
  (layer4): Sequential(
    (0): BasicBlock(
      (binary_activation): BinaryActivation()
      (binary_conv): HardBinaryConv(
        (majority_voter): Majority_Voter()
      )
      (bn1): BatchNorm2d(512, eps=1e-05, momentum=0.1, affine=True, track_running_stats=True)
      (downsample): Sequential(
        (0): AvgPool2d(kernel_size=2, stride=2, padding=0)
        (1): Conv2d(256, 512, kernel_size=(1, 1), stride=(1, 1), bias=False)
        (2): BatchNorm2d(512, eps=1e-05, momentum=0.1, affine=True, track_running_stats=True)
      )
    )
    (1): BasicBlock(
      (binary_activation): BinaryActivation()
      (binary_conv): HardBinaryConv(
        (majority_voter): Majority_Voter()
      )
      (bn1): BatchNorm2d(512, eps=1e-05, momentum=0.1, affine=True, track_running_stats=True)
    )
    (2): BasicBlock(
      (binary_activation): BinaryActivation()
      (binary_conv): HardBinaryConv(
        (majority_voter): Majority_Voter()
      )
      (bn1): BatchNorm2d(512, eps=1e-05, momentum=0.1, affine=True, track_running_stats=True)
    )
    (3): BasicBlock(
      (binary_activation): BinaryActivation()
      (binary_conv): HardBinaryConv(
        (majority_voter): Majority_Voter()
      )
      (bn1): BatchNorm2d(512, eps=1e-05, momentum=0.1, affine=True, track_running_stats=True)
    )
  )
  (avgpool): AdaptiveAvgPool2d(output_size=(1, 1))
  (fc): Linear(in_features=512, out_features=10, bias=True)
)
